data.pth (torch, 9279 bytes, 6 tensors)

l1.weight f4 [8, 127]
000000 54 7a d9 3e b2 d7 48 3f 9e ef c3 3e 96 99 34 3f
       0.4247614 0.78454125 0.3826875 0.70546854
000010 04 11 b8 be 8a ae d0 3e 2e 44 00 bf 77 77 16 be
       -0.35950482 0.40758163 -0.50104034 -0.1469401
000020 24 a7 e2 3f 17 31 22 3b b9 0d da be 14 9a e1 3e
       1.7707257 0.0024748498 -0.42588595 0.44062865
000030 37 87 4a 3f f5 a9 56 bf 0a 42 9b be b5 cf a4 3f
       0.7911257 -0.83853084 -0.3032382 1.2875887
000040 bf 5e 78 be 43 24 9f be 3f 81 23 bf 37 a6 c7 be
       -0.24254893 -0.31082353 -0.6386909 -0.38994
000050 69 11 44 bf 2c b9 9e bf 34 06 5c bf 34 7e dd 3c
       -0.76589066 -1.240026 -0.85946965 0.027037717
000060 f8 b0 b5 be 46 67 a2 3f d7 d7 39 bf 5b 0c 97 3f
       -0.3548658 1.2687767 -0.7259497 1.1800646
000070 e8 62 b6 3f 3e aa f0 3e 66 c0 af 3f f7 38 ef bf
       1.4248934 0.47004884 1.373059 -1.8689259
000080 e8 f3 0d 3e ab bc 6b bf a0 a9 24 bf e5 4b 29 bf
       0.13862574 -0.9208476 -0.6432133 -0.6613143
000090 ae 24 13 3f 19 cb 57 3d 83 ed ed 3a 4d 6e b0 3d
       0.57477844 0.052683923 0.0018152449 0.08614788
0000a0 85 f6 9d 3e 7c 98 4b 3f 70 bc 29 3e 0a 64 9f 3f
       0.30852142 0.7952955 0.1657579 1.2452404
0000b0 58 3c 63 3f 7c 4f 93 be 99 e5 c4 3f e8 8f 66 3f
       0.8876395 -0.2877158 1.5382568 0.90063334
0000c0 c4 a9 ca 3f a1 ce c7 3f 88 4e 93 3e ee 8c df bd
       1.5833058 1.5609933 0.28770852 -0.10915552
0000d0 09 fb fc 3e 91 0b d5 3b 48 49 ac 3e 34 ef ae bd
       0.49410275 0.006501623 0.3364966 -0.08541718
0000e0 e9 b8 92 be c0 e6 fe 3e 15 bf 45 3f 19 1d 17 be
       -0.286567 0.49785423 0.77244693 -0.14757194
0000f0 91 0f 6d 3f 0d 6f 0d 3f a2 aa 1c 3e 86 c1 86 3f
       0.9260188 0.55247575 0.15299466 1.0527809
000100 0a cc 92 3f 87 ee 99 3e 88 dc 3b 3e cd 41 d4 3e
       1.1468518 0.30064794 0.18345845 0.41456452
000110 14 e2 a3 3f b3 b7 cc 3e 9e 7c f8 3d 68 fd 41 bf
       1.2803369 0.399839 0.12133144 -0.7577729
000120 7b 91 ac be b3 44 b3 3e 01 63 6d bf bc 9f 4d 3f
       -0.33704743 0.3501335 -0.9272919 0.8032186
000130 0a b8 ca 3f 2d 5d d4 3f 1e d3 bc bd 43 2f d0 3e
       1.5837414 1.6590935 -0.09219955 0.40661058
000140 cc f0 b0 bf 0e ef b2 3e 7b 2a a0 3f a5 01 27 bf
       -1.3823485 0.3494801 1.2512964 -0.65236884
000150 69 a2 eb be e9 df b7 be 7a 03 0f 3e 49 f7 af 3e
       -0.46022347 -0.35913017 0.1396617 0.3436835
000160 0f 37 b3 3f 1e 22 a4 be ed 9f 40 bf ec ae e5 bd
       1.4001178 -0.3205728 -0.7524403 -0.11215004
000170 d4 db 8f 3f db 53 f9 3e 38 7c 3f bf 28 38 51 3e
       1.1238961 0.4869679 -0.7479892 0.20431578
000180 0b 92 a0 3e 3b 1e 70 3e 72 05 02 bf b7 ea 4d bd
       0.31361422 0.23449032 -0.5078956 -0.05027267
000190 8b 00 9c bd 24 fd 01 3f 91 28 88 bf c7 29 5c 3e
       -0.07617291 0.50776887 -1.063738 0.21500312
0001a0 5c ad 9a bf dc b9 88 3d d2 53 12 3f 56 4d dd 3f
       -1.2084155 0.06676075 0.5715915 1.7289226
0001b0 e9 2b 3b 3f 16 8b 0f 3e 89 ff fd be b3 b9 c0 3f
       0.73113877 0.14017901 -0.4960902 1.5056671
0001c0 56 62 26 be 79 66 9e 3e 58 d2 95 bb 0a 94 ae bf
       -0.1624845 0.30937555 -0.004572194 -1.3638928
0001d0 fb 9f c5 bf e0 f8 05 be fd 12 87 bf 68 eb 91 bd
       -1.5439447 -0.1308322 -1.055267 -0.07124978
0001e0 74 e6 9e 3f 41 c3 f8 3d e5 c3 91 3e a4 70 ef 3f
       1.2414079 0.12146617 0.28469768 1.870625
0001f0 b3 b7 e1 be 6e db 35 3e 1a ec b1 3f 9b 4c c4 be
       -0.44085464 0.17759487 1.3900177 -0.38339695
000200 e2 b9 03 3e a8 3c 1b 3e 08 40 fd 3e 22 1e 80 3f
       0.12863877 0.15159857 0.49462914 1.0009196
000210 43 77 c5 be b7 cb d1 be 82 e0 74 3f 19 28 fb 3f
       -0.38567552 -0.40975735 0.9565507 1.9621612
000220 05 13 45 3d e5 27 9d 3e 0a d3 0f 3e 1c c5 a8 3f
       0.04811384 0.306945 0.14045349 1.3185153
000230 94 0c 0a bf 58 8b 5b 3d 61 e0 a6 3f 34 ee 21 3e
       -0.5392544 0.053599685 1.3037225 0.15813524
000240 63 28 61 3f 52 9e 88 3f e7 c4 e1 3f 3d 72 f0 be
       0.8795225 1.0673316 1.7638215 -0.46962157
000250 aa c8 ad 3a 57 ab 90 bb 57 52 d5 be 97 ff 5c 3f
       0.0013258655 -0.0044149566 -0.41664383 0.863275
000260 57 ac ea 3f 73 12 12 bf 18 94 af 3f e9 52 1f 40
       1.8333844 -0.570594 1.371707 2.4894354
000270 1c 67 0a 3f ca 60 f0 3f 32 c2 dd 3e 88 95 1e 3f
       0.5406358 1.8779538 0.43312222 0.61946917
000280 67 9a 93 bf 76 1d ea be 39 8e f5 3f 3e 13 3c bf
       -1.1531495 -0.45725602 1.9184028 -0.7346686
000290 f0 87 25 bf e1 c4 bc bd 72 16 0f 3e 34 a8 65 bd
       -0.6466055 -0.09217239 0.13973406 -0.056068614
0002a0 f4 39 78 3f 90 d5 48 bf 65 75 ab 3f 82 61 b6 be
       0.9696343 -0.7845087 1.3395201 -0.35621268
0002b0 1c 22 dc be 7d 93 11 40 9d f5 e2 3e a1 f7 0d 40
       -0.42994773 2.274627 0.44328013 2.218239
0002c0 be 10 10 40 51 44 85 bf 70 39 77 3e ce c8 78 3e
       2.2510219 -1.0411474 0.24143004 0.24295351
0002d0 9c 79 4c 3f c4 d7 ec 3e 60 39 73 3d 60 e7 a0 be
       0.7987306 0.46258366 0.05938089 -0.31426525
0002e0 dc fb af 3f 33 61 bb 3f f3 cc 73 bd e8 1d 2c 3f
       1.3748736 1.4639038 -0.059521627 0.67233133
0002f0 36 17 07 3f f0 cb e2 3e e0 cc 4a bf db b9 4a bf
       0.5276979 0.44296217 -0.79218864 -0.7918984
000300 63 0f cc 3e e0 f8 3f 3f de 38 00 bd 00 b9 fb 3f
       0.3985549 0.7498913 -0.031304233 1.9665833
000310 5d 5d 6e 3d 64 ff 00 3f 19 0c 20 be 18 c6 7d 3f
       0.058194507 0.50389695 -0.15629615 0.9913039
000320 d3 21 2d 3f 8c 58 17 3f be 12 27 3f eb 93 0e 40
       0.67629737 0.59119487 0.65262973 2.2277782
000330 96 36 8b be 21 2d 86 3c 32 0f 4e 3f 8d 60 84 bf
       -0.27190083 0.016378941 0.80491936 -1.0341965
000340 3d 77 38 bd 63 2e 4b bf 88 aa 8a 3f b7 47 21 3f
       -0.04503559 -0.79367656 1.0833292 0.63000053
000350 af e4 30 3f cc 5b 34 bf 28 12 ae 3d 8c ae f7 3f
       0.69098943 -0.7045257 0.08499557 1.9350142
000360 d4 91 97 bc 91 5d 1b bf 54 c1 53 3f 8c c8 4a bf
       -0.018502153 -0.60689646 0.8271687 -0.7921226
000370 90 e2 0c 3f 56 41 61 bf 59 61 2b bf 26 16 c8 3e
       0.55033207 -0.8799032 -0.66945416 0.39079398
000380 be 3f 0f 3f 27 71 f2 be 54 fa c8 bd d5 d2 06 bf
       0.5595664 -0.47351953 -0.09813371 -0.52665454
000390 28 00 dd be f0 ee 49 bf ce 5b 91 3f d6 1e a6 3f
       -0.43164182 -0.78880215 1.1356142 1.297816
0003a0 d0 99 2d 3c cb 13 7a 3e 2f 26 58 bd 56 ce a6 be
       0.010595754 0.24421613 -0.05277079 -0.32579297
0003b0 6b ce af 3f 73 34 69 3e 49 2c a7 3f 1e fd 92 3e
       1.3734869 0.22773914 1.306039 0.28708738
0003c0 1d ba f1 3e 08 a5 c0 3c 48 b4 fb bd 24 aa 99 be
       0.47212306 0.023516193 -0.12290245 -0.3001262
0003d0 e3 ea 58 3d 75 ed 49 bf 18 cc 82 3e 96 a9 88 bf
       0.05295838 -0.78877956 0.25546336 -1.0676754
0003e0 07 8b 43 3e 73 84 1c bf d3 13 81 bf 29 84 45 3f
       0.19096003 -0.611396 -1.0084175 0.77154785
0003f0 43 50 6b 3e f6 ec 35 bf 0d 6d e0 3e 60 ed a7 be
       0.22979836 -0.710647 0.438332 -0.3279829

l1.bias f4 [8]
000000 6f db 89 3f 65 ef 48 3f bc bf 80 3f 9b f1 ec 3e
       1.0770091 0.7849029 1.0058513 0.4627808
000010 44 f4 5c 3f e0 05 92 3f 3d 0c 82 3f 08 75 84 3f
       0.8631022 1.1408043 1.0159985 1.0348215

l2.weight f4 [8, 8]
000000 ac 46 e2 3f c1 f2 92 3f 8e 9b e0 3f 8d c0 8a bf
       1.7677817 1.1480333 1.7547472 -1.0840012
000010 05 6a 08 3f 6a 08 0f bf 60 64 cf 3f 02 4e a3 bd
       0.5328677 -0.55872214 1.6202507 -0.07973863
000020 b9 16 02 40 87 51 03 bf ae f0 81 be c7 e7 91 bf
       2.032637 -0.51296276 -0.25378937 -1.1398858
000030 bf b7 ec be d6 86 4b 3f 08 45 d8 3e 40 64 9f 3f
       -0.46233937 0.7950262 0.42240167 1.2452469
000040 44 3d 87 bf 9a c5 3f bf f5 6a a7 3f 0f 37 b3 be
       -1.0565572 -0.7491089 1.3079516 -0.35002944
000050 6c 47 c5 3f 4d f2 42 3f d8 e8 51 bf d9 de 80 3f
       1.5412421 0.7615097 -0.81995916 1.0068008
000060 36 5f 46 3f d5 4f da 3f 22 ee 09 3f 16 c7 18 3f
       0.7748903 1.7055613 0.53878987 0.5967878
000070 d9 6b bf 3f e4 02 06 40 19 aa 2b bf 29 d4 a5 bf
       1.4954787 2.0939264 -0.67056423 -1.2955371
000080 a7 0a 07 bf 05 38 8b be 66 f9 a9 be 91 3d 93 3f
       -0.5275063 -0.27191177 -0.33198088 1.1503164
000090 38 b3 ab bf 77 00 3e 3f 8e d6 ec 3f 42 0a db 3f
       -1.3414068 0.7421946 1.8502977 1.7112505
0000a0 b1 7a 08 bf a8 34 9a bf 44 c4 9d 3d 89 4f f7 3f
       -0.5331221 -1.204732 0.0770345 1.9321147
0000b0 cb 85 81 3f 63 bd 07 3f 23 36 15 3f 0d 2f a2 3e
       1.0118955 0.53023356 0.5828573 0.31676522
0000c0 3e 31 1d bf 0a 4e a6 3e ff 31 a4 3f 30 1d 91 be
       -0.6140326 0.32481414 1.2827758 -0.2834258
0000d0 a8 cf 30 bf 97 6f 60 3f 99 95 77 bf 25 8d 69 3f
       -0.6906686 0.8767027 -0.9671264 0.91230994
0000e0 a8 27 50 3d 81 12 0d 40 01 6e 07 c0 7b 68 c3 be
       0.05081907 2.2042544 -2.116089 -0.3816565
0000f0 fa 8b 19 3f b6 f2 74 3f 1e 0b 00 bf 38 2b c9 3f
       0.5997921 0.9568285 -0.50016963 1.5716314

l2.bias f4 [8]
000000 45 e2 fe 3e 58 db 61 3f 69 45 0e 3f 79 60 af 3e
       0.49782005 0.88225317 0.5557466 0.3425329
000010 32 56 d1 3e 96 56 09 3e cc aa 23 3e 18 f8 01 bd
       0.40886074 0.13411936 0.15983123 -0.03173074

l3.weight f4 [30, 8]
000000 3d 60 22 3f 15 ab 48 3f 9d bf f7 bd 90 7a 67 bf
       0.634281 0.7838605 -0.12097094 -0.9042139
000010 e2 f6 cd be 45 fd 44 3e 9f 59 bc c0 e5 ae c0 c0
       -0.4022742 0.1923724 -5.88594 -6.0213494
000020 be 8c 11 3c 83 14 21 c0 fb 4f eb be 47 a9 9f be
       0.008883653 -2.516877 -0.45959458 -0.31183836
000030 1b 58 d0 3e 4f 88 4a 3f 00 67 cb c0 f0 ce 7a bf
       0.4069222 0.7911424 -6.3563232 -0.9797201
000040 97 3e 42 c0 fe cb 78 3e ac c8 52 3f eb 9b 0d bf
       -3.0350702 0.24296567 0.8233745 -0.55316037
000050 85 17 0b be 6f d6 a0 bf 15 ac 27 3f 03 19 20 3d
       -0.1358319 -1.256544 0.6549695 0.039086353
000060 9a d2 e1 bd 16 58 77 bf 1c 38 bc 3e cb 0d 07 c0
       -0.11026497 -0.96618783 0.36761558 -2.1102169
000070 76 f3 0c 3f 5b 81 92 3e d9 28 90 bf f9 87 c6 bf
       0.5505899 0.28614315 -1.1262466 -1.5510246
000080 59 06 3e c0 ee 2b a7 bf ac 68 91 3d 16 2d 00 3f
       -2.9691374 -1.3060281 0.07100043 0.50068796
000090 5b 03 85 bf 45 ca 33 bf 26 ab cd be e2 45 1c 3f
       -1.0391649 -0.70230514 -0.40169638 0.6104413
0000a0 35 68 17 bf 42 f2 c1 bc c6 e9 32 c0 aa d3 40 c0
       -0.5914338 -0.023675088 -2.7955184 -3.012919
0000b0 9d e4 65 3f 4d c8 8c 3f 76 70 2e c0 a0 28 ac bf
       0.8980196 1.0998627 -2.725614 -1.3449898
0000c0 b4 dc eb 3e ba 65 4b c0 8f a4 99 3e 06 3c a2 3d
       0.4606682 -3.178084 0.3000836 0.07921605
0000d0 0b 96 8a c0 04 06 2a bf 32 77 d6 bf ce 15 ea bf
       -4.330816 -0.6641543 -1.6755126 -1.8287904
0000e0 73 aa 1a 3d 35 ef 1b 3f ab 31 67 c0 25 11 07 3f
       0.03776021 0.60911876 -3.6124065 0.52760535
0000f0 a2 26 4c be 81 42 0b c0 62 cb 62 c0 60 a3 72 3f
       -0.19936612 -2.175934 -3.5436635 0.9478054
000100 2b bd 07 bf 01 e1 56 bf af f7 0c c0 4e 3d 0b 3f
       -0.5302302 -0.8393708 -2.2026174 0.5439042
000110 49 e5 bb bf 1b a6 b8 3e ea 26 97 c0 30 a9 1e 3f
       -1.4679347 0.36064228 -4.7235003 0.6197691
000120 86 1d 76 bf 84 50 15 c0 4d 6d f3 3e 5b ae 4a 3e
       -0.961388 -2.3330393 0.47544327 0.19793074
000130 84 db 50 c0 3a c9 2c 3f 9c d6 12 c0 ed d2 b3 bf
       -3.2633982 0.6749455 -2.2943487 -1.4048744
000140 96 ed d4 be 43 ab 42 c0 7e dc a6 3e dd a3 f1 3d
       -0.41587514 -3.041703 0.32590097 0.117988326
000150 4e 01 4c c0 2d c0 47 bf 8c 50 eb 3c 3a 9c 2a 3f
       -3.1875796 -0.7802761 0.028724931 0.6664463
000160 58 9f 0d bf 4a 17 83 3e 96 c8 4a be 3c 28 61 bf
       -0.55321264 0.25603706 -0.1980308 -0.8795202
000170 ae 0b e5 3e c4 79 0d bc 25 9a 5b c0 67 ee 49 3e
       0.44735473 -0.008634988 -3.4312832 0.1971985
000180 b2 52 a0 3f 68 8a f3 3d 19 f7 a2 be ff 16 32 3e
       1.2525237 0.11891633 -0.31829146 0.17391585
000190 bd 0a 6d c0 e2 7b 9c c0 01 e5 03 c0 e1 86 d7 be
       -3.7037804 -4.8901224 -2.0608523 -0.42095092
0001a0 f8 3e a8 3e 02 ee 6f 3e 54 23 fc be f1 0f 18 bd
       0.3286054 0.23430637 -0.49245703 -0.037124578
0001b0 69 46 3a bd 96 53 91 bf 95 47 09 bc c9 89 0a bf
       -0.045477305 -1.1353633 -0.008378883 -0.54116493
0001c0 c6 ae 6e 3c 63 af 8e 3f 77 ce 1d bf 11 7e d3 bf
       0.014568036 1.1147274 -0.61643165 -1.6522847
0001d0 8c fb 1a 3f 04 89 22 bf 21 da 1d 3f 8a 46 7a c0
       0.6054008 -0.6349032 0.61660963 -3.9105554
0001e0 0c aa f6 be 56 80 9f 3f b3 db 28 3f 04 e9 5f 3e
       -0.4817661 1.246104 0.65960234 0.21866232
0001f0 ed bb a8 c0 e1 7d 1d c0 53 20 95 3f 9a 99 d8 bf
       -5.27294 -2.460808 1.165049 -1.6921875
000200 be 7a 88 be 81 a8 4f 3f 2c 11 6d bf a6 3d 54 c0
       -0.26656145 0.8111649 -0.9260433 -3.3162627
000210 9f 21 1e 3f 6a 74 99 bf f9 94 2e bf 37 d9 c7 3e
       0.6177005 -1.1988652 -0.68196064 0.3903291
000220 12 ca 1a bf 03 e9 c7 3e b1 eb bc be 35 33 0b 3f
       -0.60464585 0.3904496 -0.36898568 0.5437501
000230 8a 87 48 c0 ae 65 23 c0 9c 42 b7 bf 5b bb 84 3f
       -3.1332726 -2.553081 -1.4317203 1.0369676
000240 4f 91 ee bf 5d 3e db 3e f5 3b c1 bf 40 e7 47 3e
       -1.8638095 0.42821017 -1.5096422 0.19521809
000250 cf d3 8a 3d 8e 76 89 bf a7 50 5f 3e d1 8b 19 3f
       0.067786805 -1.0739305 0.2180811 0.5997897
000260 1b 72 17 c0 12 73 67 3e 8a 49 b1 be 33 c2 ba bf
       -2.3663394 0.2260249 -0.34626418 -1.4590515
000270 cc e0 26 3f dd cb 9d bd f7 f1 1f 3e 88 6c c7 bb
       0.6518676 -0.077048995 0.15619646 -0.006085936
000280 1e bc 3a bf 11 b8 62 be 5b 75 f0 3e e9 be 00 c0
       -0.72943294 -0.22140528 0.46964535 -2.0116522
000290 b8 e8 87 3e fc 2b 05 c0 50 c9 a0 3f a3 37 4a 3e
       0.26544738 -2.0808096 1.2561436 0.19747786
0002a0 79 08 81 bf 6b 22 16 bf c7 b0 0c bf 9a 79 b0 be
       -1.0080711 -0.5864627 -0.5495724 -0.34467775
0002b0 34 b5 21 bf a6 2f 66 bf fb 06 d0 be 6f 4a 7a bf
       -0.6316712 -0.89916456 -0.40630326 -0.97769827
0002c0 1d 5b 82 bf e5 07 12 3f ae f6 c4 3e 25 37 9a bd
       -1.0184056 0.57043296 0.38469452 -0.07530049
0002d0 f7 cc 03 c0 f2 65 87 3c 9a d8 8a c0 b9 f1 a4 3e
       -2.059385 0.016528104 -4.3389406 0.3221567
0002e0 54 76 ff be d9 ed b0 bf 23 a9 0a c0 f0 bd 2d 3d
       -0.49894965 -1.3822585 -2.1665733 0.042417467
0002f0 a5 fd 83 3f 41 7f 33 bf c4 1e f4 bf cc 8f ed 3e
       1.0311781 -0.7011605 -1.9071889 0.4639877
000300 2f 14 9c 3f fe 1e 90 3e 30 26 86 c0 9b 03 dc 3d
       1.219366 0.28148645 -4.1921616 0.10742875
000310 67 13 29 bf 9f dc ea bf 39 a3 40 c0 be 4c 58 c0
       -0.6604523 -1.8348578 -3.0099623 -3.379684
000320 57 c9 f5 bf 55 75 ab bc 8a ae 84 3f 68 c3 46 c0
       -1.9202069 -0.020929972 1.0365765 -3.1056767
000330 73 8a b0 be ac 72 88 3e bc 84 e6 bc c3 72 61 3e
       -0.34480628 0.26649988 -0.028139465 0.22016434
000340 57 76 12 bf 8c b2 5d c0 2c 39 14 3f 4d 0d 4a 3e
       -0.5721182 -3.4640226 0.5789974 0.19731636
000350 a7 e1 55 c0 0c 2a e0 be 0b 32 2e 3f 60 50 5d c0
       -3.3418977 -0.4378208 0.6804511 -3.4580307
000360 bf 29 9a 3f 45 8a 84 3f 33 12 05 c0 54 18 10 c0
       1.204399 1.0354697 -2.0792358 -2.2514849
000370 80 0e 35 3f 72 db 11 c0 f6 96 23 c0 22 7f 07 c0
       0.7072525 -2.2790189 -2.556089 -2.1171346
000380 a2 d2 0a c0 bd 79 12 c0 08 40 0f bf 8f 1a 49 3f
       -2.169106 -2.2886803 -0.5595708 0.7855615
000390 44 2e 4a be ca a6 21 3f 19 77 01 c0 e9 4a 50 c0
       -0.19744211 0.63145125 -2.0228941 -3.2545722
0003a0 77 32 b0 be 3a a9 c0 bd af 87 e7 3e 6a 5e b9 3d
       -0.34413502 -0.094072774 0.45220706 0.09051211
0003b0 38 06 85 3c 26 7f f5 be 4c cf 50 bf f8 99 0a bf
       0.016238317 -0.4794857 -0.8156631 -0.5414119

l3.bias f4 [30]
000000 24 c2 33 bf 15 2c c5 be 08 f9 38 be 02 67 cf be
       -0.7021811 -0.38510194 -0.18063748 -0.40508276
000010 8e 51 5f bd 90 d2 af 3e d9 5e b3 be b6 c1 94 3e
       -0.054521136 0.34340334 -0.350333 0.2905404
000020 40 71 26 bd 1c 02 2e 3e 3b 2f bb bd b2 97 6c be
       -0.040635347 0.16992992 -0.09139868 -0.23104742
000030 74 6c 29 3f eb bd 06 bd 27 f1 2e 3e 49 22 05 3e
       0.6618111 -0.032895964 0.1708418 0.1300136
000040 fa ff 11 3e 9b b7 2a 3d d1 fb f5 bc 32 6a 34 bf
       0.14257804 0.041679006 -0.030027302 -0.7047454
000050 9d d2 8a bd 0c 3d f8 be b1 24 c3 be 12 13 a7 bd
       -0.067784525 -0.48484075 -0.3811393 -0.08157934
000060 cc 3a 0a be ff d8 4b 3e da b7 39 be 08 6f 21 3d
       -0.13498992 0.19906996 -0.1813654 0.03941253
000070 d9 15 83 3e 89 1a a9 3e
       0.25602606 0.33028057
